net.pth (torch, 212397 bytes, 14 tensors)

weight f4 [32, 3, 3, 3]
-0.20637275 0.1939727 0.037754275 -0.11440303 -0.17514479 0.14994754 -0.13336882 -0.14456733
-0.09807438 -0.14291693 0.07683888 0.15479203 -0.3319428 -0.17623267 0.1957752 -0.06959786
0.07664893 0.20759027 -0.35494697 0.21272868 0.19323374 -0.2197069 -0.071280695 0.23739801
-0.040636525 -0.24630706 0.058522053 -0.23902091 0.2245243 -0.20435368 0.20381555 0.0548168
-0.20579681 0.25574562 -0.03048688 -0.041646842 -0.2558511 0.020222913 -0.29010925 -0.09122317
0.111088544 -0.21791103 0.18710417 -0.12922402 -0.10034939 -0.106899306 0.09503604 -0.016637206
0.061863475 0.0924322 -0.36313477 0.114721745 -0.055389434 -0.2181614 0.022902455 -0.12489503
-0.0892454 0.028625634 -0.42870054 0.05812026 -0.3440996 0.20925769 0.029798405 0.24226208
0.18460926 -0.1632255 0.046501253 -0.30194935 0.100818045 -0.30043623 0.032050602 -0.047532618
0.06691249 0.03395099 -0.2768683 0.15938148 -0.31426856 -0.027765248 -0.17250244 0.076918736
0.24215221 -0.12101767 -0.055234943 -0.31532574 0.117786475 0.3419303 -0.19005398 -0.34042883
-0.08109992 0.2748804 0.18597399 0.06423347 -0.17614688 -0.20769031 0.18806608 -0.07147496
-0.10676945 -0.11532119 0.13219428 0.10591366 0.092554584 -0.07574144 -0.012745666 0.275656
0.0020199157 -0.14833362 -0.081835635 0.19075343 -0.16356245 -0.044036616 0.17122482 -0.41396612
-0.005901406 0.20652772 0.056075394 -0.32940772 0.046918962 -0.09116872 0.19903003 -0.10846688
-0.118124254 0.026606673 0.23030044 -0.052544855 -0.35625806 -0.011741126 0.03650858 0.051076926
0.027394617 -0.31529737 -0.19225174 0.22255419 -0.04074905 -0.29673448 -0.09625544 -0.3057344
-0.115681455 0.1731461 -0.22080557 0.036480285 0.33008265 -0.13035557 0.042894445 0.18111742
-0.26161006 0.09868747 0.011946387 -0.38279372 -0.07129691 -0.046086013 -0.17310698 -0.1287042
0.21820733 -0.31275147 -0.14207448 -0.09404501 -0.085811034 0.19994815 0.112357095 -0.35623518
-0.23945951 0.23762514 0.021033522 -0.18100078 -0.3855434 -0.0017336627 0.10476471 -0.00639491
-0.25817272 0.26558807 0.110112295 0.1301938 0.05296954 -0.40964746 0.10487709 -0.040896755
-0.21231155 -0.01502031 0.276871 0.06484161 0.21433261 -0.03196481 -0.36469555 0.21238114
0.30198824 -0.05587335 0.021673383 0.06630691 0.035868734 0.05079771 0.23130065 -0.022290107
-0.06755782 0.0036438701 -0.19835193 -0.31628123 0.26511633 -0.14741601 -0.058808703 0.054142307
0.118244216 0.10459218 -0.060866065 -0.23699625 -0.22595437 0.17634535 -0.33771116 0.060785577
0.21872722 -0.16440095 0.05959867 0.17849958 -0.010992948 -0.14074104 0.09783671 -0.29156482
0.23004346 0.15719873 -0.11842916 0.04179761 -0.12871549 -0.20295735 -0.32431307 -0.1020963
0.01317982 -0.047810644 0.38337147 -0.18397771 0.00089405617 0.11650338 -0.3293257 -0.11114423
-0.09469592 0.0950076 0.1276094 0.1836713 -0.21617271 -0.031783596 -0.21554644 -0.3056294
-0.36416605 -0.22069834 -0.0068943943 0.03288634 -0.112262696 -0.08270787 0.027772577 -0.19200379
-0.19707012 -0.28362778 -0.2882051 0.06897413 0.22198983 0.14682943 -0.28442508 -0.0951375
00000000: 6153 53be c8a0 463e 3aa4 1a3d 234c eabd
00000010: 2859 33be d98b 193e d691 08be 7509 14be
00000020: 38db c8bd d158 12be b45d 9d3d cd81 1e3e
00000030: 68f4 a9be 5676 34be 4b79 483e 5389 8ebd
00000040: 1dfa 9c3d 8b92 543e 9cbb b5be 8cd5 593e
00000050: 11df 453e d8fa 60be 9dfb 91bd 7718 733e
00000060: 7c72 26bd eb37 7cbe d2b4 6f3d e6c1 74be
00000070: b3e9 653e 1742 51be 06b5 503e 9587 603d
00000080: 66bc 52be 17f1 823e 9fbf f9bc e195 2abd
00000090: eafe 82be 86aa a53c 3389 94be 37d3 babd
000000a0: 6482 e33d 1224 5fbe 3c98 3f3e 4d53 04be
000000b0: fb83 cdbd 06ee dabd 41a2 c23d c04a 88bc
000000c0: 8e64 7d3d 184d bd3d cdec b9be 3cf3 ea3d
000000d0: 08e0 62bd b465 5fbe ee9d bb3c f7c8 ffbd
000000e0: 4bc6 b6bd 4e80 ea3c a37e dbbe 820f 6e3d
000000f0: d32d b0be a647 563e c91b f43c 8d13 783e
00000100: 360a 3d3e 9624 27be 1978 3e3d 1b99 9abe
00000110: b179 ce3d c7d2 99be 7e47 033d 90b1 42bd
00000120: 6a09 893d 3110 0b3d afc1 8dbe e634 233e
00000130: cfe7 a0be f273 e3bc 7ba4 30be 9287 9d3d
00000140: c0f6 773e 1dd8 f7bd 093e 62bd 6072 a1be
00000150: 093a f13d 7d11 af3e 839d 42be b04c aebe
00000160: b717 a6bd 20bd 8c3e f76f 3e3e d68c 833d
00000170: d95f 34be c5ac 54be 6594 403e 7761 92bd
00000180: f1a9 dabd 842d ecbd f05d 073e 43e9 d83d
00000190: 428d bd3d 541e 9bbd 33d3 50bc c922 8d3e
000001a0: 9060 043b c5e4 17be 7199 a7bd de54 433e
000001b0: ea7c 27be bd5f 34bd 8f55 2f3e 5ef3 d3be
000001c0: 9560 c1bb 017c 533e 50af 653d 21a8 a8be
000001d0: 192e 403d aab6 babd 87ce 4b3e e223 debd
000001e0: 21eb f1bd 3df6 d93c e1d3 6b3e 4639 57bd
000001f0: 7567 b6be da5d 40bc 058a 153d 0a36 513d
00000200: ad6a e03c a86e a1be a4dd 44be 3fe5 633e
00000210: 7ae8 26bd 95ed 97be 9221 c5bd 3889 9cbe
00000220: 66ea ecbd 364d 313e db1a 62be 5a6c 153d
00000230: 9800 a93e ee7b 05be 16b2 2f3d d876 393e
00000240: c1f1 85be a81c ca3d c7ba 433c 8afd c3be
00000250: 1d04 92bd b0c4 3cbd f542 31be 09cb 03be
00000260: be71 5f3e f620 a0be f97b 11be ac9a c0bd
00000270: b2bd afbd 35bf 4c3e 7a1b e63d 7564 b6be
00000280: e034 75be 0154 733e 7e4e ac3c 4558 39be
00000290: f265 c5be 113c e3ba e18e d63d 658c d1bb
000002a0: 372f 84be 29fb 873e 8e82 e13d 8651 053e
000002b0: 97f6 583d 50bd d1be cdc9 d63d 5b83 27bd
000002c0: 3368 59be bf17 76bc 09c2 8d3e aecb 843d
000002d0: 027a 5b3e 88ed 02bd 60b9 babe 717a 593e
000002e0: 349e 9a3e 74db 64bd 618c b13c ebcb 873d
000002f0: 18eb 123d 4211 503d 14da 6c3e be99 b6bc
00000300: c15b 8abd ffcd 6e3b c51c 4bbe 9def a1be
00000310: 54bd 873e 39f4 16be 65e1 70bd 53c4 5d3d
00000320: 062a f23d 6d34 d63d b24e 79bd 25af 72be
00000330: 9560 67be e093 343e 7ae8 acbe 4cfa 783d
00000340: 07fa 5f3e b958 28be bc1d 743d 98c8 363e
00000350: c41b 34bc 6b1e 10be 9d5e c83d fc47 95be
00000360: 8390 6b3e b4f8 203e fd8a f2bd f933 2b3d
00000370: fecd 03be 0dd4 4fbe 5d0c a6be dd17 d1bd
00000380: 2cf0 573c 18d5 43bd 4449 c43e a764 3cbe
00000390: 185f 6a3a 5399 ee3d 619d a8be 969f e3bd
000003a0: efef c1bd 5893 c23d 0aac 023e 5414 3c3e
000003b0: 615c 5dbe 842f 02bd 35b8 5cbe 757b 9cbe
000003c0: f973 babe bffe 61be 5fea e1bb d4b3 063d
000003d0: fce9 e5bd be62 a9bd 5183 e33c a49c 44be
000003e0: c0cc 49be a937 91be 9e8f 93be 4f42 8d3d
000003f0: 4d51 633e 745a 163e 2aa0 91be 73d7 c2bd

bias f4 [32]
0.079511784 -0.119648986 0.19035517 -0.30753604 -0.05963734 -0.14632915 0.25162524 0.17608026
-0.16834019 0.20968299 -0.06986582 -0.13452706 -0.1970037 0.2215053 -0.079311885 0.13715263
-0.067615695 0.29271048 -0.16871227 -0.19603872 0.028994147 -0.10988738 0.2151992 0.24779524
0.052966774 0.07518808 -0.19863246 0.3077141 -0.010202694 0.176509 0.06962221 0.06450749
00000000: 13d7 a23d 870a f5bd 77ec 423e 5d75 9dbe
00000010: 4946 74bd 4fd7 15be 06d5 803e 624e 343e
00000020: 5f61 2cbe 23b7 563e d015 8fbd 76c1 09be
00000030: 57bb 49be 49d2 623e 456e a2bd bd71 0c3e
00000040: 197a 8abd 26de 953e e9c2 2cbe 60be 48be
00000050: 2285 ed3c a20c e1bd 2e5d 5c3e 09be 7d3e
00000060: b0f3 583d 35fc 993d 4f66 4bbe b48c 9d3e
00000070: 3329 27bc c6be 343e 1796 8e3d 811c 843d

weight f4 [32]
1.2543759 0.88559145 1.5602943 0.8545299 1.1554232 1.3241282 0.9652221 0.061599255
1.3912069 1.7368069 1.2753596 0.7206033 1.0679926 1.0412791 1.3784529 1.747688
1.4686049 0.49802345 1.2837579 1.4233203 1.0366582 1.1950444 1.2335724 0.16641814
1.0174432 1.0572231 1.1018146 0.06161099 1.219936 0.31136206 1.101814 1.0397607
00000000: 648f a03f 1fb6 623f b9b7 c73f 79c2 5a3f
00000010: e8e4 933f 087d a93f cc18 773f 804f 7c3d
00000020: 1113 b23f b04f de3f fc3e a33f 7579 383f
00000030: fbb3 883f a248 853f 2571 b03f 3eb4 df3f
00000040: 3ffb bb3f eefc fe3e 2e52 a43f 5c2f b63f
00000050: 37b1 843f 37f7 983f b3e5 9d3f 8469 2a3e
00000060: 943b 823f 1653 873f 4308 8d3f ce5b 7c3d
00000070: dd26 9c3f d96a 9f3e 3e08 8d3f e116 853f

bias f4 [32]
-0.5361436 -0.19550115 -0.61782 -0.9574741 -0.5147853 -0.4997089 -0.4177494 -0.05061651
-0.36650848 -0.36071053 -0.42145875 -0.40701747 -0.45986068 -0.44805944 -0.45019752 -0.57203096
-0.5703976 0.25527552 -0.3958263 -0.541777 -0.33045837 -0.29367423 -0.34984848 -0.2083752
-0.068467505 -0.6053492 -0.5547047 -0.09275463 -0.3075823 0.22849947 -0.12618311 -0.5016512
00000000: b540 09bf 7431 48be 7429 1ebf 061d 75bf
00000010: f8c8 03bf d8d9 ffbe 40e3 d5be 4253 4fbd
00000020: 00a7 bbbe 0daf b8be 71c9 d7be 9864 d0be
00000030: dc72 ebbe 0c68 e5be 4a80 e6be 9f70 12bf
00000040: 9405 12bf 79b3 823e bfa9 cabe e6b1 0abf
00000050: d731 a9be 785c 96be 571f b3be 4f60 55be
00000060: b138 8cbd 2af8 1abf 2101 0ebf 24f6 bdbd
00000070: 6d7b 9dbe c4fb 693e 2536 01be 376c 00bf

running_mean f4 [32]
-0.020650543 -0.26982483 0.05727904 -0.3296296 -0.2465471 -0.33562165 0.26161984 0.08778697
-0.38483173 0.0035986241 -0.19295862 -0.22453871 -0.33834514 0.1363631 -0.31245637 -0.011370159
-0.23271993 0.8192792 -0.343397 -0.27434272 -0.07124063 -0.1846733 0.033226043 0.14066927
0.017122466 -0.08858089 -0.27481878 0.21475048 -0.111477144 0.6928878 0.0078056664 0.011226863
00000000: 542b a9bc 7b26 8abe 6d9d 6a3d 36c5 a8be
00000010: d876 7cbe 9ad6 abbe 09f3 853e a8c9 b33d
00000020: aa08 c5be e5d6 6b3b f296 45be 7aed 65be
00000030: 933b adbe c5a2 0b3e 48fa 9fbe e749 3abc
00000040: 224e 6ebe 48bc 513f bbd1 afbe a676 8cbe
00000050: 9be6 91bd ff1a 3dbe 0818 083d 9b0b 103e
00000060: 6a44 8c3c e669 b5bd 0cb5 8cbe 8de7 5b3e
00000070: 214e e4bd 1861 313f adc6 ff3b e0f0 373c

running_var f4 [32]
0.15997344 0.13399658 0.12184487 0.028843755 0.19785266 0.31625718 0.09434763 0.075636216
0.27213937 0.25830224 0.18775262 0.054297905 0.1970415 0.07837591 0.30463842 0.11739648
0.14177111 0.9907489 0.24616265 0.06426287 0.14917836 0.062260404 0.24437118 0.09858455
0.10380667 0.25062528 0.16793269 0.15659064 0.22846691 0.9544988 0.0370633 0.04386317
00000000: 14d0 233e 6636 093e ce89 f93d bd49 ec3c
00000010: e399 4a3e 76ec a13e 5539 c13d 29e7 9a3d
00000020: da55 8b3e 3140 843e 3942 403e 7b67 5e3d
00000030: 3fc5 493e 8d83 a03d 91f9 9b3e 916d f03d
00000040: 722c 113e b8a1 7d3f 1012 7c3e 409c 833d
00000050: 36c2 183e c404 7f3d 703c 7a3e b2e6 c93d
00000060: 9798 d43d f551 803e 8cf6 2b3e 4c59 203e
00000070: 3bf3 693e 095a 743f b0cf 173d dea9 333d

weight f4 [64, 32, 3, 3]
-0.042430945 0.14460456 0.07972748 0.10898148 0.06721341 0.22444114 -0.17888509 0.16835065
0.29596952 0.24855748 -0.002785028 0.22755034 0.40169394 0.24570289 0.09914454 0.05835407
0.10785955 -0.19936657 -0.14576578 0.13018529 0.3595296 0.13900153 -0.21870159 0.18176845
0.17889771 0.14169444 -0.13965197 0.15192021 0.027368331 -0.0048661036 0.055081274 -0.0672658
0.050696205 -0.06750755 -0.10726701 0.11361218 0.058525886 0.18011315 0.025396124 0.09491402
0.13060547 0.19144511 -0.098964036 0.13214439 0.090782225 -0.10194228 0.11417837 0.11643477
-0.037675176 0.2857339 0.3164884 -0.026448613 -0.030177385 0.28136638 0.21344289 -0.16289295
-0.043690395 0.006123911 -0.097564176 0.2763806 -0.079527594 0.13048688 -0.08613305 0.19917253
-0.09567202 0.14734606 -0.1102577 0.14112467 0.005223543 -0.025613774 -0.05604275 -0.027875949
-0.182119 -0.24638966 -0.11369455 0.00037709053 -0.12252976 -0.24569121 0.27865547 -0.047268525
-0.20287848 -0.14274189 0.073593095 0.15340713 0.2584046 -0.08562188 -0.14169061 0.27506348
0.04140685 -0.31324288 -0.01036334 -0.35709032 -0.23315151 -0.16130607 -0.13202153 -0.1610604
0.133302 -0.120396875 -0.18805228 0.39769912 0.1456951 0.29952103 0.3994567 0.16178174
0.16194028 -0.18148752 0.10510245 -0.106040515 0.10293923 -0.07215241 -0.020178188 0.048941515
-0.18958364 -0.052536804 -0.18515913 0.1090659 -0.09209329 0.19549847 -0.0965023 0.22419778
0.21230674 0.045051888 -0.062826656 0.038678467 0.04725011 -0.2746536 -0.14164251 -0.03662195
-0.0032432154 -0.046577178 -0.10352816 0.0035314597 0.1793839 -0.14183658 0.10725059 0.06170851
-0.056982942 -0.023940055 0.15184912 0.0344457 -0.24045739 -0.13905862 0.016155364 -0.12576254
-0.056032497 -0.024619767 -0.006957542 0.08424894 0.009569828 -0.117040664 -0.09663908 -0.06478384
-0.13209784 -0.09260752 -0.1319619 0.0276688 -0.09162577 -0.118431464 0.07931059 -0.20101246
-0.10468679 0.016833877 -0.102907985 -0.12733375 -0.20879593 -0.01874962 -0.17022832 -0.29893878
-0.024751002 0.108712226 -0.16621538 0.023657586 -0.10323583 0.05832738 0.18180119 -0.19861938
-0.12958299 0.031352185 0.16510142 -0.03497787 -0.09589761 -0.18271562 0.0021627785 -0.15967432
-0.36649314 -0.09903984 0.030790392 0.0045419564 0.035154004 0.009655571 0.043018818 0.044849187
-0.029275017 -0.060283948 -0.108909205 0.11440693 -0.17895372 -0.13989595 -0.25300524 -0.01284491
-0.064415015 -0.08724214 -0.04242175 -0.037495833 0.25339496 -0.03248253 -0.04309492 0.23010737
-0.03916565 0.1830354 0.0055836504 -0.22401382 0.113805644 -0.08535111 0.07608436 0.052780088
0.042186815 -0.2777219 -0.013627017 -0.1380352 -0.050987717 -0.008938698 0.04988459 0.15710954
-0.11801644 0.117720686 -0.046921115 0.23366928 0.15793791 0.005005982 -0.030934302 0.09179244
0.007872031 -0.1434238 0.06767106 -0.2308452 0.02240307 -0.16361843 -0.13376376 -0.060019728
0.14709347 -0.11499334 -0.2004541 0.13273464 0.010928111 0.22532772 -0.0014423183 -0.007486472
-0.0023430595 0.016565524 -0.12233999 0.03034528 0.12274955 0.0043547093 0.2760589 0.15311529
00000000: 12cc 2dbd 3813 143e 2948 a33d af31 df3d
00000010: 2fa7 893d e6d3 653e a72d 37be 1d64 2c3e
00000020: 5189 973e da85 7e3e 0485 36bb f502 693e
00000030: d4aa cd3e 8a99 7b3e 4b0c cb3d ad04 6f3d
00000040: 78e5 dc3d c026 4cbe a043 15be 4b4f 053e
00000050: 4414 b83e 6b56 0e3e 4ff3 5fbe 8221 3a3e
00000060: f630 373e 5918 113e ed00 0fbe f990 1b3e
00000070: 8d33 e03c d673 9fbb e79c 613d a7c2 89bd
00000080: d3a6 4f3d 6641 8abd ceae dbbd 81ad e83d
00000090: d7b8 6f3d 956f 383e 880b d03c 4862 c23d
000000a0: 71bd 053e 300a 443e a8ad cabd dc50 073e
000000b0: 08ec b93d 1dc7 d0bd 59d6 e93d 5a75 ee3d
000000c0: 4951 1abd b74b 923e c40a a23e c3aa d8bc
000000d0: 9036 f7bc 410f 903e c690 5a3e 69cd 26be
000000e0: b3f4 32bd 17ab c83b bacf c7bd c281 8d3e
000000f0: 5ddf a2bd 5a9e 053e 8666 b0bd e2f3 4b3e
00000100: b1ef c3bd e3e1 163e cace e1bd fc82 103e
00000110: 412a ab3b fad3 d1bc 158d 65bd 1a5c e4bc
00000120: 677d 3abe 924d 7cbe b0d8 e8bd 3cb4 c539
00000130: e2f0 fabd 7a96 7bbe eeab 8e3e a49c 41bd
00000140: 60bf 4fbe ee2a 12be fab7 963d c216 1d3e
00000150: 9c4d 843e 865a afbd 5817 11be 1fd5 8c3e
00000160: 3b9a 293d 5f61 a0be 00cb 29bc 8bd4 b6be
00000170: 45bf 6ebe 6b2d 25be a730 07be 04ed 24be
00000180: 5280 083e a392 f6bd c790 40be 389f cb3e
00000190: 1931 153e d25a 993e 9785 cc3e 1daa 253e
000001a0: acd3 253e ddd7 39be f43f d73d c52b d9bd
000001b0: ced1 d23d a5c4 93bd ba4c a5bc e676 483d
000001c0: 3722 42be d530 57bd 5b9a 3dbe f15d df3d
000001d0: 689b bcbd c030 483e ffa2 c5bd 1a94 653e
000001e0: f066 593e 5488 383d 43ab 80bd 506d 1e3d
000001f0: 5589 413d 669f 8cbe bc0a 11be e600 16bd
00000200: 208c 54bb b6c7 3ebd 9206 d4bd 1070 673b
00000210: 6ab0 373e 9c3d 11be 33a6 db3d 10c2 7c3d
00000220: f266 69bd ef1d c4bc 567e 1b3e ef16 0d3d
00000230: 763a 76be 6265 0ebe 4158 843c e5c7 00be
00000240: 5582 65bd 65af c9bc 18fc e3bb b58a ac3d
00000250: c5ca 1c3c 04b3 efbd b6ea c5bd 64ad 84bd
00000260: a844 07be 03a9 bdbd 0521 07be aea9 e23c
00000270: 4ba6 bbbd 328c f2bd 976d a23d 36d6 4dbe
00000280: 0766 d6bd 33e7 893c 6cc1 d2bd c763 02be
00000290: 9ace 55be ce98 99bc 5550 2ebe 810e 99be
000002a0: 9dc2 cabc 84a4 de3d 5d34 2abe 8ecd c13c
000002b0: 4f6d d3bd b1e8 6e3d 172a 3a3e e162 4bbe
000002c0: 67b1 04be 266b 003d 5910 293e f444 0fbd
000002d0: f765 c4bd ce19 3bbe 67bd 0d3b aa81 23be
000002e0: fda4 bbbe 66d5 cabd 223c fc3c b1d4 943b
000002f0: a5fd 0f3d 6632 1e3c 8034 303d c8b3 373d
00000300: 29d2 efbc 4dec 76bd ca0b dfbd 2e4e ea3d
00000310: a53f 37be e240 0fbe e789 81be 7573 52bc
00000320: 05ec 83bd 02ac b2bd 6ec2 2dbd 3b95 19bd
00000330: fcbc 813e 670c 05bd 4d84 30bd 44a1 6b3e
00000340: 296c 20bd a26d 3b3e 0ef7 b63b e163 65be
00000350: ef12 e93d 90cc aebd 1ed2 9b3d ef2f 583d
00000360: 15cc 2c3d 9131 8ebe da43 5fbc 1959 0dbe
00000370: 7fd8 50bd 9e73 12bc c953 4c3d 53e1 203e
00000380: 9ab2 f1bd 8b17 f13d 5b30 40bd 0047 6f3e
00000390: 7aba 213e 3809 a43b ef69 fdbc adfd bb3d
000003a0: b1f9 003c b0dd 12be 2097 8a3d af62 6cbe
000003b0: a586 b73c 978b 27be 5ef9 08be 3fd7 75bd
000003c0: ac9f 163e a181 ebbd d743 4dbe 97eb 073e
000003d0: d20b 333c 4fbc 663e 2c0c bdba 1451 f5bb
000003e0: 048e 19bb 6cb4 873c 648d fabd aa96 f83c
000003f0: 1e64 fb3d f3b1 8e3b 9857 8d3e 41ca 1c3e

bias f4 [64]
0.059916392 -0.09987085 -0.006228625 0.14634106 0.0073931557 0.15774448 0.06694586 -0.055917103
-0.08002648 0.0060208323 0.00543292 -0.053226996 0.019491835 0.0037371414 0.026000557 0.10318989
-0.008258711 0.075155675 0.0629854 -0.025024967 -0.012901352 0.07330663 0.034484804 0.059790835
-0.014590904 0.05772791 -0.020445304 0.08180873 -0.0083053885 0.019693471 0.0496771 -0.0839364
0.037576057 0.012263379 0.0636886 0.04922314 0.08844667 0.025000524 0.001255166 -0.03792284
-0.02807859 -0.056401838 -0.0050187362 -0.022831852 0.04655245 -0.06554925 -0.0016069538 0.020675857
-0.021739434 0.06581817 -0.113561496 -0.046780653 -0.1322732 -0.025708903 -0.14810197 0.108534455
0.00895159 -0.014297227 -0.000271821 -0.028254183 0.0175649 0.042691372 0.04517884 -0.02499822
00000000: e46a 753d 1789 ccbd 7e19 ccbb 6eda 153e
00000010: 4942 f23b c587 213e e91a 893d 5509 65bd
00000020: ece4 a3bd 674a c53b a306 b23b 8d04 5abd
00000030: 57ad 9f3c d4ea 743b 1fff d43c 3955 d33d
00000040: 8b4f 07bc 38eb 993d 7dfe 803d 2901 cdbc
00000050: 3160 53bc c921 963d f03f 0d3d 3ce7 743d
00000060: b00e 6fbc 1a74 6c3d e97c a7bc 568b a73d
00000070: 5313 08bc 3454 a13c 377a 4b3d d9e6 abbd
00000080: 5ae9 193d 57ec 483c 2b6f 823d 349e 493d
00000090: 8723 b53d e6cd cc3c 6284 a43a fb54 1bbd
000000a0: 1205 e6bc 9d05 67bd 3674 a4bb dd09 bbbc
000000b0: c8ad 3e3d af3e 86bd 6ca0 d2ba 6a60 a93c
000000c0: e616 b2bc adcb 863d ee92 e8bd 129d 3fbd
000000d0: a072 07be 7a9b d2bc 0ba8 17be 5047 de3d
000000e0: b1a9 123c eb3e 6abc 3283 8eb9 5175 e7bc
000000f0: 44e4 8f3c 26dd 2e3d 730d 393d 11c9 ccbc

weight f4 [64]
1.1492981 1.4117628 1.0266006 1.0830821 1.2882451 1.2438204 1.2092084 0.9967487
1.5278454 1.1105617 1.2599931 1.433691 0.9412946 0.95542043 1.288491 1.1553042
1.3962532 1.2071005 1.2286327 1.4877967 1.1410183 1.4717216 1.5115632 1.092592
0.948941 1.3956219 1.1126837 1.2376541 1.5407015 1.295804 1.4078456 1.3138523
1.0977532 1.153443 1.1817173 1.2158899 1.1834904 1.0259538 1.2344912 1.0110763
1.295548 1.2202625 1.1462816 0.95543337 1.2219716 1.0746593 1.2572522 1.2021728
0.96452165 1.316119 1.145473 1.1848665 1.1285152 1.138594 1.4034462 1.2495892
1.4859667 1.0819027 1.1435356 1.3755413 1.1609361 1.0555079 1.4522349 1.2603505
00000000: 331c 933f a5b4 b43f a667 833f 6fa2 8a3f
00000010: 37e5 a43f 8235 9f3f 57c7 9a3f ec2a 7f3f
00000020: 7090 c33f e326 8e3f 7447 a13f 3083 b73f
00000030: aff8 703f 6f96 743f 46ed a43f 02e1 933f
00000040: 6db8 b23f 4582 9a3f d643 9d3f 1f70 be3f
00000050: e30c 923f 6061 bc3f e77a c13f 0eda 8b3f
00000060: cced 723f bda3 b23f 6b6c 8e3f 736b 9e3f
00000070: b535 c53f e8dc a53f 4934 b43f 502c a83f
00000080: 2d83 8c3f 05a4 933f 8342 973f 48a2 9b3f
00000090: 9d7c 973f 7452 833f cf03 9e3f f36a 813f
000000a0: 84d4 a53f 9031 9c3f 5bb9 923f 4897 743f
000000b0: 9169 9c3f 708e 893f a4ed a03f cce0 993f
000000c0: e4ea 763f 9676 a83f dc9e 923f b5a9 973f
000000d0: 3073 903f 73bd 913f 20a4 b33f 8af2 9f3f
000000e0: 2834 be3f ca7b 8a3f 605f 923f bd11 b03f
000000f0: 8e99 943f e21a 873f d5e2 b93f 2a53 a13f

bias f4 [64]
-0.45173666 -0.6475205 -0.39237046 -0.41921744 -0.3185303 -0.50896126 -0.50574005 -0.4778111
-0.43328992 -0.42533487 -0.4705911 -0.338914 -0.45198166 -0.37819397 -0.4937501 -0.4648715
-0.41469604 -0.35022584 -0.595804 -0.22903435 -0.37422556 -0.46747953 -0.45982522 -0.51422644
-0.3173847 -0.2590041 -0.3263877 -0.50130147 -0.47750533 -0.350414 -0.657524 -0.26474246
-0.5331246 -0.441295 -0.39128944 -0.4739492 -0.47743085 -0.41033477 -0.5264476 -0.4579266
-0.35415345 -0.42198703 -0.3680169 -0.43514842 -0.2715615 -0.45231488 -0.5328073 -0.48745072
-0.4218021 -0.42967474 -0.45490164 -0.42889887 -0.56538165 -0.44725135 -0.4168159 -0.5502727
-0.37652692 -0.54481345 -0.51055384 -0.37132362 -0.43371665 -0.5070524 -0.5670189 -0.3983547
00000000: 074a e7be e7c3 25bf c8e4 c8be aba3 d6be
00000010: 6716 a3be 494b 02bf 2e78 01bf a8a3 f4be
00000020: 2dd8 ddbe 7ec5 d9be 51f1 f0be 2386 adbe
00000030: 246a e7be a4a2 c1be d0cc fcbe a303 eebe
00000040: 0a53 d4be cd50 b3be 9c86 18bf fb87 6abe
00000050: 7e9a bfbe 7a59 efbe 366e ebbe 58a4 03bf
00000060: 3f80 a2be 2f9c 84be 4a1c a7be 4b55 00bf
00000070: 947b f4be 7769 b3be 7e53 28bf 538c 87be
00000080: db7a 08bf 6bf1 e1be 1757 c8be 78a9 f2be
00000090: d171 f4be 6617 d2be 45c5 06bf 5b75 eabe
000000a0: 9a53 b5be af0e d8be b66c bcbe c6cb debe
000000b0: 1c0a 8bbe d195 e7be 0f66 08bf 2493 f9be
000000c0: 72f6 d7be 54fe dbbe dee8 e8be a298 dbbe
000000d0: dabc 10bf 21fe e4be e568 d5be acde 0cbf
000000e0: 23c8 c0be e578 0bbf a8b3 02bf 211e bebe
000000f0: 1c10 debe 30ce 01bf 2728 11bf 26f5 cbbe

running_mean f4 [64]
-0.831447 -1.3248614 -0.99336565 -1.2193302 -1.1120363 -0.46048385 -0.50038743 -0.7187338
0.020900462 -1.0788157 -0.7019091 0.17093462 -0.9815788 -1.6906734 -0.7369677 -0.7441612
-0.67242116 -0.6171908 -0.79097825 0.302497 -1.1357828 -0.021749292 -0.109901026 -1.2006078
-0.6132584 0.4317793 -0.8617681 -1.5332267 -0.010549001 0.21458524 -0.272052 -0.5250717
-1.5064042 -0.5385146 -0.70147973 -1.2248228 0.19699818 -0.7358881 -0.6225987 -1.1724788
-0.71795416 -1.063317 -0.9587228 -1.2839437 -0.536636 -0.76786524 -1.4013087 -1.190882
-1.3615276 -0.7101815 -1.8231055 -1.1413109 -1.2147044 -1.3465978 -0.7191683 -0.74677867
-0.4291674 -1.9191754 -1.2681817 0.017270986 -1.1405196 -0.55046344 -1.162215 -1.2242494
00000000: b6d9 54bf 0f95 a9bf 364d 7ebf 0313 9cbf
00000010: 3557 8ebf 8ac4 ebbe 6419 00bf f0fe 37bf
00000020: 7237 ab3c a216 8abf 51b0 33bf 7c09 2f3e
00000030: c048 7bbf fc67 d8bf eaa9 3cbf 5981 3ebf
00000040: cb23 2cbf 3700 1ebf 8d7d 4abf e3e0 9a3e
00000050: 5561 91bf 922b b2bc ca13 e1bd 84ad 99bf
00000060: 81fe 1cbf 2d12 dd3e d69c 5cbf c640 c4bf
00000070: b8d5 2cbc 3cbc 5b3e 664a 8bbe 196b 06bf
00000080: dad1 c0bf 18dc 09bf 2d94 33bf fec6 9cbf
00000090: e4b9 493e 2a63 3cbf a162 1fbf c913 96bf
000000a0: d8cb 37bf c51a 88bf db6e 75bf 4458 a4bf
000000b0: fa60 09bf d192 44bf 155e b3bf d26e 98bf
000000c0: 8946 aebf 74ce 35bf 855b e9bf 7a16 92bf
000000d0: 6f7b 9bbf 515d acbf 6a1b 38bf e32c 3fbf
000000e0: d4bb dbbe 8aa7 f5bf c753 a2bf e27b 8d3c
000000f0: 8cfc 91bf 2ceb 0cbf 76c3 94bf 34b4 9cbf

running_var f4 [64]
6.360777 8.967425 7.0232816 5.637753 8.3447275 13.08434 8.141569 7.213705
10.209441 15.491567 8.842242 8.43672 8.320828 7.7103114 18.905436 10.980157
11.382669 7.2901945 10.890121 8.847526 10.172709 6.62052 10.163413 14.496355
7.680377 9.108844 13.717945 7.5459623 7.7137337 10.305876 5.2916493 11.786175
5.824303 13.270018 8.839957 10.590479 8.666034 7.8462877 10.612324 8.896084
11.4547205 13.89531 5.3558607 8.396619 11.810328 9.763268 6.7115464 7.6782484
3.2630308 9.38404 6.510844 14.67451 6.844773 12.841777 9.556691 7.184573
7.39363 4.209742 9.738712 6.8972135 17.21426 12.456811 9.947443 10.420515
00000000: 7c8b cb40 937a 0f41 b9be e040 7968 b440
00000010: 0184 0541 7559 5141 de43 0241 acd6 e640
00000020: df59 2341 75dd 7741 d379 0d41 cefc 0641
00000030: 1d22 0541 dfba f640 553e 9741 b9ae 2f41
00000040: 6a1f 3641 4649 e940 f03d 2e41 778f 0d41
00000050: 6bc3 2241 4ddb d340 579d 2241 12f1 6741
00000060: a6c5 f540 d3bd 1141 b47c 5b41 8678 f140
00000070: e8d6 f640 dee4 2441 3155 a940 2c94 3c41
00000080: b160 ba40 fe51 5441 7770 0d41 9a72 2941
00000090: 13a8 0a41 ca14 fb40 14cc 2941 5c56 0e41
000000a0: 8946 3741 3153 5e41 3663 ab40 8d58 0641
000000b0: 1af7 3c41 5936 1c41 fdc4 d640 36b4 f540
000000c0: 7fd5 5040 0725 1641 d658 d040 cbca 6a41
000000d0: 6108 db40 eb77 4d41 35e8 1841 06e8 e540
000000e0: 9e98 ec40 35b6 8640 c4d1 1b41 f9b5 dc40
000000f0: ceb6 8941 194f 4741 ba28 1f41 6eba 2641

weight f4 [10, 3136]
-0.0050183483 -0.020017365 -0.09071261 0.04523786 -0.14170519 -0.17768009 0.14299756 0.0779138
-0.011412803 -0.24929917 -0.21368049 0.12789908 -0.38087544 0.05768693 0.16307867 -0.0040441207
-0.1632719 -0.0193966 0.048464946 0.17075817 -0.009398851 0.024295285 0.120003365 0.14208469
0.13035643 0.38083187 0.14935668 0.12730062 0.11981796 -0.029039342 0.17596494 0.24510138
0.04809211 0.07761211 0.12708472 0.100164495 -0.0012383929 0.05326833 -0.2735215 -0.1913365
-0.05563487 0.025213689 0.048102558 -0.05959193 -0.42898032 -0.603474 -0.56248367 0.014949967
-0.0215773 -0.021516314 -0.018612906 -0.060369108 -0.012907429 -0.011199475 -0.11887997 0.033985097
-0.079399705 0.1177419 -0.14135157 0.03775651 0.0017665362 -0.0835403 -0.39751515 0.044792354
0.022157593 0.06258244 -0.06818213 -0.59192365 -0.11348301 -0.029719613 0.16548412 0.045602646
-0.07665713 -0.0727707 0.13733132 0.24214047 -0.06822266 0.13957417 -0.036249522 -0.010657353
0.18783998 -0.107465096 0.06284183 0.041739747 -0.032424994 -0.20467848 -0.30631566 0.016354848
-0.16612482 0.045515135 -0.009163534 0.012004306 -0.034734186 0.050335977 -0.036176734 -0.43072712
-0.19622886 -0.20312293 0.0094788065 -0.22489102 -0.05300847 0.014301366 -0.015712945 0.059323244
0.028844532 -0.030287324 0.03421895 -0.10348386 0.026029592 0.16267622 0.11423541 -0.010755172
-0.12625319 0.15808393 0.039754137 0.15761122 -0.18159036 -0.06408664 0.09799374 -0.053387728
-0.0017941657 -0.019904293 -0.22695817 -0.078935534 0.062448703 -0.14022778 0.19340771 0.021703627
-0.036348283 0.1831255 -0.098252274 -0.021139627 -0.13734077 0.073723204 -0.08644305 -0.052663602
-0.13473906 -0.010873021 -0.055024195 -0.07344617 -0.20197819 -0.0753839 0.009250559 0.13543952
-0.19759247 -0.31694937 -0.18601939 0.13799648 0.12426074 0.28117275 -0.15077914 -0.36892015
0.14566714 0.10758931 0.035348337 -0.15342985 -0.32389155 -0.097846664 0.016321672 0.057688087
-0.054184426 0.20683491 0.101495385 -0.025477495 -0.22482195 0.051822998 0.12863506 0.22152472
0.18094349 0.18268283 0.1318434 0.098424144 0.14772394 0.09567213 0.20022582 0.031398825
0.0044265417 0.094276 0.10689702 -0.110412784 -0.04523583 0.09818002 -0.06982425 -0.06527479
-0.04913022 0.08403295 -0.20000327 -0.09324107 -0.15653938 0.1162903 -0.20794216 0.12467037
-0.19738996 -0.5522805 -0.3822662 -0.07717158 -0.021699829 -0.11176872 -0.074580245 0.02285489
-0.10691685 -0.13198273 0.030714273 -0.08387819 -0.23703152 0.030384248 -0.08102924 -0.047415715
0.0023649638 -0.029299881 -0.05850767 0.13726754 0.079603605 0.034743063 -0.30898046 0.013397313
-0.12050929 0.15078531 0.20167738 0.19835451 -0.16765234 -0.08364222 0.13021962 0.10824743
0.08026053 0.0606775 -0.18346402 0.1080551 0.16755839 -0.033790942 -0.09167557 -0.05555011
0.0552725 0.0006444439 -0.04894933 -0.094919 -0.04861009 0.032922573 0.004954152 -0.07883898
-0.5274597 -0.3815265 -0.09527607 -0.06872573 -0.0069197165 -0.30537823 -0.18193433 0.1576969
0.048585005 0.064404435 -0.014244422 -0.03989938 -0.1368233 0.029358381 -0.053717587 -0.001428591
00000000: f570 a4bb 75fb a3bc 88c7 b9bd 564b 393d
00000010: 2a1b 11be c5f1 35be f46d 123e 4591 9f3d
00000020: c4fc 3abc 4848 7fbe 0fcf 5abe faf7 023e
00000030: 1b02 c3be 2149 6c3d 18fe 263e 8b84 84bb
00000040: c030 27be 9ee5 9ebc 2e83 463d 3bdb 2e3e
00000050: a3fd 19bc e806 c73c 53c4 f53d a67e 113e
00000060: 287c 053e 65fc c23e f5f0 183e 185b 023e
00000070: 1e63 f53d eae3 edbc 2730 343e dbfb 7a3e
00000080: 3bfc 443d 19f3 9e3d 7f22 023e 0b23 cd3d
00000090: 9251 a2ba e42f 5a3d 030b 8cbe b7ed 43be
000000a0: 64e1 63bd f08c ce3c 3007 453d ab16 74bd
000000b0: 4fa3 dbbe 467d 1abf eefe 0fbf b5f0 743c
000000c0: e1c2 b0bc fb42 b0bc 187a 98bc 9945 77bd
000000d0: ae79 53bc 017e 37bc 5777 f3bd f533 0b3d
000000e0: 509c a2bd aa22 f13d 77be 10be 92a6 1a3d
000000f0: 1e8b e73a 2d17 abbd 1b87 cbbe 3078 373d
00000100: d783 b53c 392b 803d 13a3 8bbd 4f88 17bf
00000110: c869 e8bd 8c76 f3bc ab74 293e d7c9 3a3d
00000120: 6afe 9cbd ce08 95bd 95a0 0c3e acf3 773e
00000130: 52b8 8bbd 88ec 0e3e 617a 14bd 2e9c 2ebc
00000140: 2059 403e a916 dcbd 38b3 803d 4cf7 2a3d
00000150: 12d0 04bd 3c97 51be 68d5 9cbe 9afa 853c
00000160: a01c 2abe 146e 3a3d a622 16bc b5ad 443c
00000170: 6f45 0ebd 192d 4e3d 0e2e 14bd 4488 dcbe
00000180: 38f0 48be 75ff 4fbe ff4c 1b3c d549 66be
00000190: 691f 59bd 4750 6a3c 6fb8 80bc eefc 723d
000001a0: 5e4b ec3c 1f1d f8bc 2b29 0c3d 59ef d3bd
000001b0: 033c d53c 9894 263e 41f4 e93d 7636 30bc
000001c0: 8448 01be c1e0 213e 3cd5 223d d664 213e
000001d0: d3f2 39be db3f 83bd f1b0 c83d 17ad 5abd
000001e0: 362a ebba 540e a3bc b967 68be f4a8 a1bd
000001f0: 36ca 7f3d df97 0fbe ac0c 463e cecb b13c
00000200: f0e1 14bd 4085 3b3e 7d38 c9bd 032d adbc
00000210: 0fa3 0cbe 31fc 963d 0e09 b1bd cab5 57bd
00000220: 09f9 09be c124 32bc 0d61 61bd f26a 96bd
00000230: 5fd3 4ebe e062 9abd a88f 173c a8b0 0a3e
00000240: ae55 4abe 3047 a2be de7b 3ebe f34e 0d3e
00000250: 6a7c fe3d e0f5 8f3e d965 1abe 1ae3 bcbe
00000260: c429 153e c957 dc3d 6bc9 103d b71c 1dbe
00000270: 1dd5 a5be d563 c8bd 07b5 853c 584a 6c3d
00000280: 7df0 5dbd 88cc 533e d0dc cf3d 2eb6 d0bc
00000290: ba37 66be 5a44 543d e9b8 033e 60d7 623e
000002a0: 4049 393e 3511 3b3e f501 073e 9992 c93d
000002b0: f244 173e c0ef c33d ff07 4d3e 0e9c 003d
000002c0: 860c 913b c713 c13d d3ec da3d 1920 e2bd
000002d0: 3549 39bd 9b12 c93d 0400 8fbd caae 85bd
000002e0: c53c 49bd 7819 ac3d a8cd 4cbe 2df5 bebd
000002f0: dc4b 20be 9c29 ee3d caee 54be 2e53 ff3d
00000300: 9820 4abe 4162 0dbf 65b8 c3be 220c 9ebd
00000310: d7c3 b1bc 00e7 e4bd 87bd 98bd 2e3a bb3c
00000320: 39f7 dabd 7b26 07be 809c fb3c 54c8 abbd
00000330: 64b8 72be 63e8 f83c a8f2 a5bd fb36 42bd
00000340: 82fd 1a3b 4e06 f0bc bda5 6fbd dd8f 0c3e
00000350: 3707 a33d be4e 0e3d b032 9ebe 6780 5b3c
00000360: 93cd f6bd 7767 1a3e 8484 4e3e 721d 4b3e
00000370: 0ead 2bbe 9d4c abbd 4b58 053e d4b0 dd3d
00000380: a25f a43d f888 783d fedd 3bbe fe4b dd3d
00000390: 6d94 2b3e 5f68 0abd 67c0 bbbd 8388 63bd
000003a0: 6b65 623d e6ef 283a 187f 48bd e564 c2bd
000003b0: 601b 47bd d2d9 063d 7056 a23b 5576 a1bd
000003c0: 9907 07bf 7157 c3be 1a20 c3bd 13c0 8cbd
000003d0: cabe e2bb 895a 9cbe fe4c 3abe 4c7b 213e
000003e0: 1201 473d 79e6 833d 7061 69bc 886d 23bd
000003f0: 681b 0cbe fd80 f03c f906 5cbd 8f3f bbba

bias f4 [10]
0.07816344 0.17952213 0.032965355 -0.022233767 -0.10228195 0.023551907 -0.0379065 0.050002094
-0.12562071 -0.022712603
00000000: 2714 a03d a6d4 373e ae06 073d 9723 b6bc
00000010: 3379 d1bd eeef c03c d943 1bbd ffce 4c3d
00000020: b7a2 00be c80f babc
